ml_models/sign_model_222222222222_C5.00.pt (torch, 198756 bytes, 6 tensors)

linear_layer_stack.0.weight f4 [208, 13]
000000 80 83 43 3f 7b 66 a8 3e dc a3 49 3f e0 63 6a bf
       0.7637253 0.32890686 0.78765655 -0.9155865
000010 22 f0 2c 3f 5b 70 3e bf 9d 59 42 be dc 85 a9 be
       0.67553914 -0.7439019 -0.18979497 -0.3310994
000020 f4 15 a2 3d 57 19 9a 3d 27 28 9a 3e 8b 02 f8 3e
       0.079143435 0.075243644 0.3010876 0.4843944
000030 66 b8 65 3e a1 1d e9 3e 94 fb 7a be 4c 6b b7 be
       0.22433624 0.45530418 -0.24510032 -0.3582405
000040 ee 3d fc be a6 ca 27 3f 42 01 0d be 97 c7 ed 3e
       -0.49266 0.6554359 -0.13770011 0.46441337
000050 70 28 12 3e dc f4 9a be 81 7f ae bd ce d5 48 3f
       0.14273238 -0.30264938 -0.08520413 0.7845124
000060 30 72 18 3e f9 27 33 3e 05 df 19 bf ff 9d e8 be
       0.14887309 0.17495717 -0.60105926 -0.4543304
000070 f9 22 35 3f 33 cb b1 be 0f 91 34 be 8e 45 71 3e
       0.7075649 -0.3472534 -0.1763346 0.2356169
000080 17 2b 69 bd d2 76 93 3e ac 3d 1a be 32 45 dc bd
       -0.05692586 0.2880159 -0.15062588 -0.107553855
000090 f4 b4 09 3f 6d 27 e9 3e 17 cb 1e 3e ad e2 79 3f
       0.5379174 0.45537892 0.1550716 0.97611505
0000a0 22 9c 16 3f 17 54 83 be 40 c5 46 3f 25 a8 cf 3d
       0.5883199 -0.25650093 0.7764473 0.10139493
0000b0 cb 69 b8 3e 51 e2 8f bd 8f e7 1b 3f fa 0a 2e be
       0.36018214 -0.07025588 0.60900205 -0.16996375
0000c0 cf f9 09 3f 77 88 2a bf 0b 24 ed 3e df 4e 56 bd
       0.538968 -0.6661448 0.4631656 -0.05232131
0000d0 0e f6 34 3e 94 c4 43 3e 67 39 03 3e c8 ed 29 be
       0.17671987 0.19117957 0.12814866 -0.16594613
0000e0 da 84 50 be 47 ff 47 be 37 44 08 be e6 5f 23 3e
       -0.20363179 -0.19530974 -0.13307272 0.15954551
0000f0 0c 3d 8e bd e3 20 19 bd 20 b9 1e be 49 b2 6b be
       -0.069452375 -0.03738488 -0.15500307 -0.23017229
000100 f3 8d 11 be 57 9b 02 3e bf 21 22 be 2b 17 15 3e
       -0.14214306 0.1275457 -0.15833186 0.14559619
000110 e0 c4 f4 3e f1 e8 ad 3d ae ef 37 be b5 db 9b 3e
       0.47806454 0.08491696 -0.17962524 0.3044106
000120 b4 dd 1b bd 9b 85 8d 3e d8 6e b7 3d e7 44 d0 be
       -0.03805323 0.27640995 0.08956689 -0.40677568
000130 e4 36 73 be 61 9f 39 3e eb 86 4b 3e 5c 75 36 3e
       -0.23751408 0.18127204 0.19875686 0.17818207
000140 c1 4d d7 bc 51 47 97 3d 8c 7c 09 be f8 ae cf bd
       -0.026282193 0.073866494 -0.13426417 -0.101407945
000150 73 32 3a be 79 25 23 3d fc 48 6b 3e 0a e9 7a be
       -0.18183307 0.03983066 0.2297706 -0.2450296
000160 4d 08 35 be 05 4e 9d bd 50 62 1d be 73 a6 0b 3f
       -0.17678948 -0.07680897 -0.15369534 0.54550856
000170 a6 58 47 3f fe 5c 05 3e 5f a4 f7 be 5b be fd be
       0.7786964 0.13023755 -0.48367593 -0.49559292
000180 26 34 21 3f f6 8b 11 3e c7 d2 8e be e3 14 fb 3e
       0.629702 0.14213547 -0.27895185 0.49039373
000190 45 9b 9c 3e f4 0d 8c be 33 06 e8 3e ab 6c cb 3c
       0.3058721 -0.27354395 0.4531723 0.02483209
0001a0 46 4f 59 bf 82 a4 8f 3f eb 97 90 be 43 7e 38 3f
       -0.84886587 1.1222079 -0.28240904 0.7206766
0001b0 b8 05 24 be 3e 66 89 be 26 f5 b0 bc 64 aa 00 3e
       -0.16017807 -0.26835817 -0.02160127 0.12564999
0001c0 43 a4 4c 3d 8f 2b d2 3c c6 fe b8 bd b7 1c 02 3e
       0.04996134 0.025655536 -0.09032969 0.12706266
0001d0 dd ea 0f 3e 34 0b 02 3f ed 86 bb bd a4 92 b7 3d
       0.14054437 0.50798345 -0.091565944 0.08963516
0001e0 4f c2 1d 3e 16 75 bd 3e 7d 2a c8 bd 07 cb 15 be
       0.15406154 0.37003392 -0.09773729 -0.1462823
0001f0 4d 5c ee 3d 9b 55 d9 bd 9e 02 04 3f 00 07 8a be
       0.11638699 -0.10612031 0.51566494 -0.26958466
000200 80 db 24 3d 5b 61 d3 3e 70 e6 b0 3d 97 fb 4d be
       0.040248394 0.41285214 0.086377025 -0.20115505
000210 27 f0 88 be 02 9a 79 be ff 73 5c 3e c3 0f 85 3e
       -0.26745722 -0.24375156 0.21528624 0.25988588
000220 b3 e1 b6 3c 93 5f 4a be 89 c2 14 be a4 c4 5b 3d
       0.022324419 -0.19763021 -0.14527334 0.053654328
000230 d7 54 43 be 61 5c 1f be 88 57 8a 3e 40 1e c8 be
       -0.19075333 -0.15562584 0.27019906 -0.3908558
000240 e5 f1 dd 3e 63 43 cc 3e 5c 15 ce be ac cc e8 3e
       0.43348613 0.39895162 -0.4025067 0.45468652
000250 a2 fa 72 3e aa d5 5e 3e 3d c1 61 3f 0c fe 46 be
       0.23728421 0.21761194 0.88185483 -0.19432849
000260 07 b9 0a 3f a7 c1 11 3f c5 3f 1a 3f 12 d5 de 3e
       0.5418858 0.56936115 0.60253555 0.43521935
000270 d9 6f 21 3e ec 2f 21 3f 1f b7 08 bf 03 3a d8 bc
       0.15765323 0.6296375 -0.5340442 -0.02639485
000280 6c 30 95 be c3 7b 2c be 9a e0 98 3e 98 90 db 3e
       -0.29138505 -0.16844086 0.29858857 0.42883754
000290 7f cf f5 3d 38 8c d2 3e 14 19 9f 3e d2 5a a8 3e
       0.12002467 0.41122603 0.3107382 0.3288179
0002a0 97 c5 c8 3d f5 fc 97 be d4 74 05 be 33 35 17 3e
       0.09803312 -0.29685178 -0.13032848 0.14766388
0002b0 90 95 be 3e 64 a5 02 3f 2a ca 3c bf e3 26 75 3e
       0.37223482 0.51033616 -0.7374598 0.23940615
0002c0 38 3a 4a be 8a da e0 3e a0 ba 86 3e 3c da d8 3e
       -0.19748771 0.43916732 0.2631426 0.42354
0002d0 0b 16 9b 3d ea 43 56 be 56 74 1b bf 13 7f 4b 3f
       0.07572564 -0.20924345 -0.6072439 0.79490775
0002e0 2f f2 7d be c5 87 35 3f 41 b5 0f bf ed bc 9e be
       -0.24799417 0.7091029 -0.56135947 -0.31003514
0002f0 a7 69 d2 3d a4 56 58 be 87 ae d2 3d 7a c5 7b be
       0.10274058 -0.21126801 0.10287195 -0.2458705
000300 48 8c 5a 3e dd 1c 11 3f 76 40 4f 3e 14 88 a5 3e
       0.21342576 0.56684667 0.20239434 0.32330382
000310 4e 87 34 be c7 ca ee be 9b 6c dc 3c d4 b7 d7 be
       -0.1762974 -0.46639082 0.026907256 -0.42132437
000320 ae 7f 19 3f 6e 9a 9b 3e 78 3f dd 3d bf 7e 39 bd
       0.5996045 0.30391258 0.10803121 -0.04528689
000330 33 27 9e 3e 4b 5b c6 3e 28 a4 5e 3c 95 6d 3d bd
       0.30889282 0.38741526 0.013588943 -0.046247084
000340 d9 94 ea 3e 66 41 fc 3e 68 f6 29 bd 1a c9 b2 be
       0.45816687 0.49268645 -0.041494757 -0.34919053
000350 64 1e ac 3e bd c1 c7 3e 8a b5 ad 3e 45 1a 13 3f
       0.33616936 0.39014998 0.33927566 0.5746196
000360 3c e5 bc 3d 48 aa 9c be d3 e0 10 be d2 f7 89 be
       0.092234105 -0.30598664 -0.14148264 -0.26946884
000370 4b 54 81 3e 7a 11 a6 3d 5c c9 a5 3e 90 21 78 be
       0.25259623 0.08108802 0.32380188 -0.24231553
000380 6d 81 b7 3d dd 1f 76 3c a2 5d 33 be 91 28 53 be
       0.08960233 0.015022245 -0.17516187 -0.20620944
000390 82 a2 34 be be d1 58 3e 73 26 c3 3e f3 78 71 3e
       -0.17640117 0.2117376 0.38115272 0.23581295
0003a0 3a e8 b4 be a1 8c 8d 3e a7 86 1e 3f 06 65 c5 3e
       -0.35333425 0.27646354 0.61924213 0.38553637
0003b0 0c 6b c9 be 40 ec 82 be 35 a8 e0 3e bc 21 3b 3f
       -0.39339483 -0.2557087 0.43878332 0.7309835
0003c0 ee 7b 46 bf 9f 19 f3 bd c4 19 82 3e d9 a1 bb 3d
       -0.7753285 -0.11870121 0.25410283 0.09161729
0003d0 07 04 a5 3e 5b e1 ab be 2e b5 e3 bc 8c 91 82 3e
       0.32229635 -0.3357037 -0.027796354 0.25501668
0003e0 f1 5b ec 3e 7b 43 9f be 7d 41 c9 bd 56 58 16 3f
       0.46163896 -0.3110617 -0.09826944 0.5872854
0003f0 d5 d3 cf 3e 2d cb 66 be 3e 3b 84 be e6 30 c3 3e
       0.40591303 -0.22538443 -0.25826448 0.38123244

linear_layer_stack.0.bias f4 [208]
000000 62 41 57 3f 94 40 2c 3f 75 cb 1f 3f 44 06 cd be
       0.8408414 0.6728604 0.62419826 -0.40043843
000010 0d 4e f9 bd bc b0 ef 3b 56 75 be bd 6e 58 d9 bc
       -0.1217309 0.0073147696 -0.09299724 -0.026531424
000020 38 bc 7b 3e de fb 55 be 01 cb 20 bd a7 1b bf be
       0.24583519 -0.20896861 -0.0392561 -0.37325785
000030 b7 73 75 3c 38 57 9e 3e d3 86 6e 3f 72 ed 8c 3e
       0.014981202 0.30925918 0.93174475 0.27524906
000040 10 25 d1 3d 20 33 12 3e 8b b4 0d 3f 29 6d 2d bd
       0.10212147 0.14277315 0.5535361 -0.04234043
000050 ef 9c 3e 3f 81 2f 92 be e9 61 be bd f5 25 01 3e
       0.7445821 -0.28551868 -0.09296019 0.12612136
000060 71 52 10 3f 5b 40 25 3f a4 31 88 3f 9a 0b bf be
       0.56375796 0.64551324 1.0640149 -0.3731354
000070 9d 26 1d 3d da 0e de bc 5b 58 56 3e d1 ea a7 be
       0.038366903 -0.027106691 0.20932142 -0.32796338
000080 88 44 f2 3c 94 62 e0 3c 91 bf 07 3f 91 93 de 3e
       0.029573694 0.027390756 0.5302668 0.4347196
000090 4c c1 e8 be 86 39 64 3f a6 23 fd be 5e f3 87 be
       -0.45459974 0.89150274 -0.4944126 -0.26552862
0000a0 eb cd 16 3e 59 6c bf 3c f2 00 7c 3d 5c a3 c8 be
       0.14726989 0.023367094 0.06152434 -0.39187133
0000b0 28 e5 d6 3d 72 c9 f0 bc 58 f6 87 bd 0b bd 7f be
       0.10492927 -0.029392932 -0.06638783 -0.24974458
0000c0 7d 81 5e 3e 45 45 88 be b4 fd 2c bf 8c 89 11 3f
       0.21729083 -0.26615348 -0.6757462 0.56850505
0000d0 de 78 c0 3e 4a eb 70 3e b7 ef 09 3f 19 7d 86 be
       0.37592214 0.23527256 0.538814 -0.26267317
0000e0 4a 25 37 3f 09 4c d6 bd 54 c5 ed bd 82 cc 28 bd
       0.71541274 -0.10463721 -0.11609903 -0.04121066
0000f0 7d 1d 8d be 66 a6 48 3e c8 6f 16 3f ae dc 87 bd
       -0.2756156 0.19594726 0.58764315 -0.06633888
000100 f5 e3 dc bb bc ec 36 bf 4c 69 51 3e 6e 84 93 be
       -0.006741042 -0.7145498 0.20450324 -0.28811973
000110 19 41 3e be 16 09 1f 3f cb 9c d9 3e c7 85 8c 3e
       -0.1857952 0.6212324 0.42502436 0.27445814
000120 af 09 93 3d 6e 84 5b 3f e0 c5 3b 3f ed ad 50 3e
       0.071795814 0.85748947 0.7334881 0.20378847
000130 40 21 29 3d 2d fc 02 3e 78 b3 26 3f 5d 49 e8 3d
       0.041291475 0.1279151 0.651176 0.11342118
000140 3e 1d 25 3f 76 5a c9 3e 9e 50 71 3f e8 68 d8 bd
       0.64497745 0.3932683 0.9426364 -0.10566884
000150 d2 87 98 be f8 5a d3 3d c5 55 f2 bc 3f 55 84 3e
       -0.29791123 0.10320085 -0.029581914 0.25846288
000160 1d 7f 2b 3f f4 76 81 3e 94 99 ab bc 5f a0 43 be
       0.66990834 0.25286067 -0.020947255 -0.19104145
000170 c8 87 2f 3f de 37 74 bd 43 80 81 3e 68 21 87 be
       0.6856656 -0.05962359 0.25293168 -0.26392674
000180 ea 15 89 3e 7f 01 8b bd 55 50 d0 be 23 16 35 be
       0.26774532 -0.06787395 -0.40686288 -0.17684226
000190 0f 26 b5 3e 6c 6d 9f 3d af 72 f2 3d ba 05 d9 bd
       0.353806 0.077845424 0.118382804 -0.105967954
0001a0 5c 11 78 3e 00 40 05 3f bb 57 a8 3e d3 32 56 3e
       0.24225372 0.5205078 0.32879433 0.20917825
0001b0 72 4b 07 3f 01 1d 07 3e 6d 02 17 be 6e 73 2c 3e
       0.52849495 0.13194658 -0.14747019 0.16840908
0001c0 b2 16 4f be 80 31 03 3d e3 06 f0 3e c1 0d a0 be
       -0.20223501 0.03202963 0.46880254 -0.31260493
0001d0 2b e6 03 be 3a 19 13 3e 82 97 e9 3e 39 31 08 bf
       -0.12880771 0.14365092 0.45623404 -0.5320011
0001e0 a7 c4 11 bf 56 8e 19 3e 8c cf 5d 3e 7f d0 19 be
       -0.5694069 0.14995703 0.21661204 -0.15020941
0001f0 11 44 e8 3d 2d 6b be 3d 6b c8 1b be 28 23 94 bd
       0.11341108 0.09297786 -0.15213172 -0.07233268
000200 88 ba c4 3e 27 6f 7d 3e fe f1 34 bd 4a be 34 3f
       0.38423562 0.24749433 -0.044176094 0.7060286
000210 8f 4d 0d 3f af 69 87 3e 3e d2 cf be 9d 9a 31 be
       0.5519647 0.26447818 -0.4059009 -0.17344137
000220 8c eb 59 3f 3b 03 b9 3e 87 b4 90 be d5 ee 59 be
       0.8512504 0.36135277 -0.2826273 -0.21282513
000230 f6 fc 79 3e a8 9f 14 be e8 af 5b 3f ab 9f 7e 3f
       0.24412903 -0.14514029 0.85815287 0.99462384
000240 fe 4e a1 3d d6 dd 9b 3d ce 4c b7 3d 5c 6a b1 bd
       0.07876395 0.07610671 0.08950196 -0.086628646
000250 e7 6d f3 3e 65 93 ee be 6e cd ba 3e 96 b1 ab 3c
       0.47544786 -0.46596828 0.36484855 0.020958703
000260 e7 ca 72 3f ed b6 69 3f 38 4e 68 3f 96 90 63 3e
       0.94840854 0.9129475 0.9074435 0.22223124
000270 4e fc 66 be 1f b4 c0 be a2 8d 36 3f 04 7f 84 be
       -0.22557184 -0.3763742 0.71309865 -0.25878155
000280 2a ef 72 bd 93 cb 05 3f d4 15 66 3f de 84 39 3e
       -0.059310116 0.52263755 0.8987706 0.18117091
000290 38 8e 10 3f 04 66 0b bf d1 64 88 3e eb f3 41 3e
       0.5646701 -0.5445254 0.26639417 0.18940704
0002a0 8f 02 ed bd dd 85 10 3d 9e 79 57 3f ba c6 0a bf
       -0.11572754 0.035283912 0.8416995 -0.5420948
0002b0 08 a9 ef 3e 5a 60 c5 3e 70 36 cb be d8 77 5a 3e
       0.46808648 0.38550073 -0.3968997 0.2133478
0002c0 06 09 4c 3f 13 71 97 3e ba a4 78 3f 7e a2 7a 3d
       0.7970127 0.29578456 0.9712635 0.06119012
0002d0 60 48 1e 3f f2 bc 25 3f 6f 32 a6 3e 9e 9a 1c bf
       0.61829185 0.6474143 0.32460353 -0.6117343
0002e0 02 9e 70 3f 25 20 d1 3c e2 d6 01 3f 64 bf d5 3e
       0.939911 0.025528023 0.5071851 0.41747582
0002f0 ca 09 b2 3d 41 7c ab be 74 73 6b be 63 89 41 3f
       0.08693273 -0.33493236 -0.2299326 0.7560026
000300 f8 a1 bc 3e 9c 5f 92 be 93 24 c4 be 3c 90 69 3e
       0.36842322 -0.2858857 -0.38309154 0.22808927
000310 f1 6f 78 be 16 29 fb 3e 21 cf d7 3d df 2b b1 3c
       -0.24261452 0.49054784 0.105375536 0.021627365
000320 23 61 63 3e 53 95 87 3c 93 74 0c 3f 7c 0a 2a 3e
       0.22205023 0.016550696 0.5486538 0.16605562
000330 ec af af 3e bf 5f 1b 3f 25 21 bf 3d c2 b6 ab 3d
       0.34313905 0.6069297 0.09332494 0.08384468

linear_layer_stack.2.weight f4 [208, 208]
000000 fe e1 2a 3c ba 22 6e 3c 10 60 00 3d f3 9c f8 3c
       0.010429857 0.014534647 0.031341612 0.030348277
000010 bf 9a 40 bc ea 1d 4f bd 06 f9 7b bd fd cb d3 bb
       -0.011755644 -0.050565638 -0.061516784 -0.0064635263
000020 e9 a3 11 bc e6 45 0d bc 86 18 7b bd 63 7e 99 3c
       -0.008889177 -0.008622622 -0.061302684 0.018737024
000030 0d 5d d9 bb 82 02 fd bc 9b 77 b1 3b 47 46 1c 3b
       -0.006633407 -0.030884985 0.0054158694 0.00238456
000040 40 dc 86 3d 4f 39 80 3c 50 6d 85 bc 1f 95 1c 3b
       0.06584978 0.015652327 -0.016287476 0.0023892594
000050 a5 25 a7 3c 47 49 e9 ba ac d9 60 3d 43 20 5a bd
       0.020403692 -0.0017798328 0.054895088 -0.053253423
000060 c4 41 02 bd dd 44 c3 3c bc 6f 61 bd 46 64 17 bd
       -0.031801 0.023836548 -0.0550382 -0.036960863
000070 cb 2e 2b bd 40 ce 56 bc 7f 23 56 3d 5b 11 0d bd
       -0.041792672 -0.013110697 0.052279945 -0.03444038
000080 13 14 3d 3d 6d 26 85 bd 0f c8 88 bd 47 aa 84 3d
       0.046161722 -0.0650147 -0.06678783 0.0647779
000090 f5 b0 8e 3c 81 00 36 bd 46 29 52 bc 80 dc c6 bc
       0.017418364 -0.044434074 -0.012827223 -0.024275064
0000a0 82 2f 6c 3c 6e 27 14 3d 26 09 3b 3d 11 3b ba bc
       0.014415624 0.036170416 0.04566302 -0.022733243
0000b0 3b e4 90 3c c0 c4 47 bc d0 7a 69 3d 6a c2 33 3d
       0.017686954 -0.012192905 0.05700189 0.04388658
0000c0 42 6b 4a bd ff cb 8d 3b 02 33 64 3d 4a e9 8a 3c
       -0.049418695 0.0043272967 0.055712707 0.016956944
0000d0 f7 cd 91 bd f1 8a f9 bc fa 6e a3 bd fb 7f 5f 3d
       -0.07119363 -0.03046176 -0.079801515 0.05456541
0000e0 dc 4c 62 3d 52 c8 4e 3d df 65 29 bd 68 22 6a bd
       0.05524908 0.05048401 -0.041356917 -0.05716172
0000f0 87 43 ae 3c 3d 7c 5f bd 51 59 7f bd 3f 7d d5 bc
       0.021272434 -0.054561842 -0.06234104 -0.026060699
000100 92 b3 4e 3d 57 0f 86 bb d9 f6 1d 3d a6 da 62 3d
       0.05046422 -0.004091184 0.03856549 0.0553843
000110 5d eb 19 bc 44 fd f1 bc 07 b4 7b 3d 84 30 57 3c
       -0.009394494 -0.029539712 0.061450984 0.013134126
000120 c8 86 98 3c 70 71 3f bd 57 3c 47 bd b2 c3 c1 3c
       0.018618956 -0.04673904 -0.04864153 0.023652885
000130 bc 69 b6 39 6c e8 ca bc 51 30 5d bd e9 55 91 bd
       0.00034792523 -0.02476903 -0.054001156 -0.07096464
000140 99 df 83 bd fa 3e 23 ba 03 97 23 3d 23 00 d5 ba
       -0.06439132 -0.0006227341 0.039938938 -0.0016250651
000150 c2 57 0e bd 25 dd 68 3b ea 00 95 3c e5 71 3d 3d
       -0.03475166 0.0035532203 0.018188912 0.046251196
000160 53 3e 2e bd c9 b2 29 3d 11 02 0c bd 5c f8 a4 3c
       -0.042539906 0.04143027 -0.03418166 0.020137958
000170 74 df 2a bd 02 5b 00 bd e8 13 37 bd dd 3b 6f bd
       -0.041717008 -0.03133679 -0.04469672 -0.0584067
000180 d7 15 24 bc eb 9d 33 bd 48 9f 41 bd 1b 66 44 3d
       -0.010014973 -0.043851774 -0.047271043 0.047948938
000190 de 7e 7c bd fb 9b 18 bd 47 cb 92 bd d0 8c 09 3d
       -0.061644427 -0.03725813 -0.07167678 0.033581555
0001a0 53 e3 2b bd b1 f0 60 bd a8 51 ad 3c 7b de 77 3b
       -0.04196484 -0.05491704 0.0211571 0.0037821818
0001b0 c4 61 0b bd 84 0f 25 3d f7 c4 fe 3c 2f 14 24 bc
       -0.034028783 0.040298 0.03109978 -0.010014578
0001c0 e6 63 50 3d 8b 89 51 3c 63 10 6f 3d 6f 28 71 bd
       0.05087652 0.01278914 0.058365237 -0.05887645
0001d0 b6 de 71 bd 46 dc 4d 3c 56 c1 82 bc ee 4a 48 3d
       -0.059050284 0.012564724 -0.01596133 0.048899584
0001e0 78 45 c9 3b 22 46 86 3d d2 c7 4d bd e1 eb a7 3a
       0.0061423145 0.065563455 -0.05023939 0.0012811386
0001f0 82 71 eb 3c 6a 4a 67 3d 43 ee 6e 3d 22 12 6a 3d
       0.028740648 0.05646745 0.058332693 0.0571462
000200 22 32 26 3d 37 1f 62 bd fc ca 8a 3d 6f f0 35 bd
       0.040575154 -0.05520555 0.067769974 -0.04441875
000210 91 18 67 bd 00 41 70 bc c9 e4 7b 3d 42 47 ef 3c
       -0.056419913 -0.014663935 0.061497483 0.029208783
000220 db e4 81 3c 53 9d 1c 3d 70 50 c8 3c ce 51 65 bd
       0.015856197 0.038235974 0.024452418 -0.05598622
000230 0a 52 34 3d c2 64 b8 bc 89 4c 0a 3d a0 90 4f bc
       0.04402355 -0.022508983 0.033764396 -0.012668759
000240 5a 9d 3f bd ca 03 0e bc 1c 07 2e bd b9 36 8d bd
       -0.04678092 -0.008667896 -0.04248725 -0.06895203
000250 b5 90 45 bd 20 90 77 bd c5 e1 c2 3c 2e ad 5a 3c
       -0.048233707 -0.060440183 0.023789296 0.013346953
000260 67 27 59 3d 15 cb 0c bc ba c1 65 3d 05 1c 5a bd
       0.053016093 -0.00859334 0.056092955 -0.053249378
000270 b2 a9 e8 bc e1 72 60 3d 22 a1 34 bc 46 a1 86 3d
       -0.02840123 0.054797057 -0.011024745 0.06573729
000280 93 68 e4 bc 5c 60 8e bc 2e 42 7f 3d b7 38 05 3d
       -0.027881896 -0.017379932 0.062318973 0.03252479
000290 83 89 4c bc 63 e7 bd bc bb b5 a0 3c 7b f5 13 3d
       -0.012483957 -0.023181623 0.019617906 0.03612278
0002a0 4e e3 65 bc 2c d2 18 3d 5e 1a 02 bd 69 7c 03 3d
       -0.014031244 0.03730981 -0.031763427 0.03210107
0002b0 7c e2 54 bd d2 75 2c bd 28 5c b8 3b 5c d5 11 bd
       -0.051973805 -0.04210455 0.0056262203 -0.035603866
0002c0 b2 c3 de bc fd 6e 1c bd 5a 90 87 3c 53 62 8e bd
       -0.027192924 -0.038191784 0.016548324 -0.069523476
0002d0 f2 25 25 3d 92 78 94 bd 9f 1c fa 3c 7f 5f 45 3d
       0.04031939 -0.072495595 0.030531226 0.048186775
0002e0 23 9f 45 bd ad ce bf bc 6b 58 10 3c 84 29 46 3d
       -0.048247468 -0.02341398 0.008810143 0.048379436
0002f0 44 41 05 3c 21 1d 4b bd 85 96 cd 3c 6f c2 5f 3d
       0.008133236 -0.049588326 0.025096187 0.054628786
000300 1a 3f 31 bd 86 8d 5d 3d 1f e6 31 3d 49 e4 91 bd
       -0.04327307 0.054090045 0.04343235 -0.0712362
000310 3c ca 06 3d 91 13 31 3d 56 d8 b1 3a d0 32 9b 3c
       0.03290771 0.04323155 0.0013568501 0.018945128
000320 da 2d e0 bc 5a 17 1f bc 70 d0 8c bd 39 06 86 bc
       -0.027365614 -0.009710157 -0.06875694 -0.01636039
000330 fa 63 bb 3c 5e 9c 40 3d 8e 9c 9a 3a 43 09 fa 3c
       0.022874821 0.047024123 0.0011795925 0.030521994
000340 6d 2e f2 3d 8a d4 86 3e c4 d7 8a be 45 11 76 3e
       0.11825261 0.2633403 -0.2711774 0.24030025
000350 aa 62 25 3c 7f 51 e6 bd 18 fe 07 bd a8 78 bc 3e
       0.010094324 -0.11246013 -0.033201307 0.36810803
000360 88 ad 05 3d 41 c9 48 bd cf 58 3d 3d 4b 5a ca 3a
       0.032636195 -0.049020056 0.046227273 0.0015438286
000370 3d 6c 85 3e 59 80 7c be ab d5 b7 3d 37 ff 6d 3e
       0.26059142 -0.24658336 0.08976301 0.23241888
000380 16 6e 4e 3e 12 02 3e 3d ce dd e0 3e 3e 9b 79 3e
       0.20159182 0.046388693 0.43919224 0.24375626
000390 87 63 23 3e d2 c2 0c be a9 ed f3 bc 44 1d ad bc
       0.15955935 -0.13746193 -0.029776411 -0.021132119
0003a0 8a 80 32 be fe b0 0e 3b 7a dc 8d 3d b8 0f 8a be
       -0.17431846 0.0021772976 0.06926818 -0.26965117
0003b0 4a 86 3c 3e ca 27 db 3c 5c 2d 14 3b 41 67 62 3d
       0.18410602 0.026752371 0.0022610044 0.05527425
0003c0 0c f0 b8 bb ff 59 ff bd 84 19 c9 3c f0 dd a9 bc
       -0.00564385 -0.12468337 0.0245483 -0.02073571
0003d0 5b 4b 1e 3d df 5d 3e 3d 13 a9 85 be e8 c2 d4 bd
       0.038646083 0.04647624 -0.26105556 -0.10388738
0003e0 f0 1c a7 bd 62 53 16 be cc e6 67 be b1 13 7e bc
       -0.08159816 -0.14680246 -0.22646636 -0.0155076245
0003f0 da 6d bf bb 16 41 21 3d 22 a8 84 3d dd 16 da bc
       -0.0058419527 0.03936871 0.06477381 -0.02662223

linear_layer_stack.2.bias f4 [208]
000000 18 9f 86 bd f4 b5 27 3d 99 42 20 3c 9b ba 0b 3e
       -0.065733135 0.04094501 0.009781503 0.13645403
000010 94 23 eb 3a 31 cd cd bd 0a e0 a5 3e 0f b3 d8 bd
       0.001793968 -0.10048903 0.3239749 -0.10581028
000020 78 47 27 bd c0 ee c6 bd e2 ce 2f 3e 21 b5 f8 bd
       -0.040839642 -0.09713507 0.17168763 -0.121439226
000030 15 82 f6 3d e7 c1 86 3c 2a f6 87 3d f9 43 8c be
       0.1203653 0.016449882 0.06638749 -0.2739561
000040 bf d0 8c 3d 10 1b 12 3e 4a 35 89 3e ed 15 96 3c
       0.06875753 0.14268136 0.2679847 0.018321002
000050 d5 89 c7 3d af 42 94 bd e5 e7 82 bc 53 5b ac bd
       0.09743086 -0.072392814 -0.015979717 -0.08415856
000060 fe ff 67 3d 17 bd 84 3c e0 d7 57 3e 6c 6a c3 3c
       0.056640618 0.016203446 0.21078444 0.023854457
000070 4c 8f f0 3c 45 8c 0e 3e c9 3c 1d bd 9b 79 b0 bb
       0.029365204 0.13920696 -0.038388047 -0.0053855903
000080 81 3a 8e bd 6f bb 32 bd ec 4d 0b be ac 01 88 bd
       -0.069447525 -0.04363578 -0.13603944 -0.06640944
000090 49 23 e8 bc e7 fb 89 bd 5b 2c 34 bc 0c 71 1f be
       -0.028337138 -0.067375 -0.010996903 -0.15570468
0000a0 2a 57 bc bd 45 65 1b 3d 4c d5 41 bc a9 fc 88 3c
       -0.09196313 0.037938375 -0.011830639 0.01672204
0000b0 14 52 0c 3e 61 f5 eb 3c 3b 2e e3 3d fe 62 92 3d
       0.13703185 0.02880353 0.11092802 0.071477875
0000c0 f5 f0 0e 3d c4 a6 0f be b8 25 b1 bc fb 72 ac 3e
       0.034897763 -0.1402846 -0.021624431 0.33681473
0000d0 57 31 99 ba 15 c1 4b be 75 83 b4 3e fc ee ee bd
       -0.0011687678 -0.19897874 0.35256544 -0.116666764
0000e0 2f 0a 19 3e 43 07 6b 3e fd 2e 0f bd ff 90 83 be
       0.14945291 0.22951989 -0.03495692 -0.2569656
0000f0 79 17 1f be 32 50 6e bd 78 ad 09 be 0d 4f 28 3d
       -0.15536298 -0.05818195 -0.1344508 0.041091014
000100 8c c2 5c be 5c 97 1b be f8 15 1c bd 87 dd 03 be
       -0.21558589 -0.15194458 -0.03810689 -0.12877475
000110 13 71 fd bc 8c 3e 06 3b fa ed b9 be e3 e2 29 bd
       -0.030937707 0.0020484058 -0.36314374 -0.04147614
000120 b3 f3 4d bd 62 c2 4c 3d 2e c3 53 bd 1d 89 00 bd
       -0.050281238 0.049990065 -0.05169981 -0.03138076
000130 fe a4 e1 3c 0b 37 ba bc d5 6e 35 bd 24 06 01 be
       0.027544495 -0.022731325 -0.04429515 -0.12599999
000140 77 99 89 3d 23 a3 31 bc e9 bd 18 bd c5 b8 b6 bd
       0.06718724 -0.0108421175 -0.037290487 -0.08921961
000150 e2 26 6c 3d c8 15 96 3e 8d a0 be 3e 2b 10 82 bd
       0.05765427 0.29313493 0.37231866 -0.0635074
000160 dd fd da 3d 8a d4 eb bd c9 77 de bd bc 3f 83 3e
       0.10692952 -0.11515148 -0.10862691 0.25634563
000170 e1 30 e3 3d 0d 14 73 3e b4 6b f3 bb a0 6a aa bc
       0.11093307 0.23738118 -0.0074286107 -0.020802796
000180 63 a1 cf bc c3 c2 72 3c 7f 15 94 3d a2 74 0b 3e
       -0.02534551 0.014816943 0.072306626 0.1361871
000190 a1 0a 06 3e b4 eb 32 be 50 42 45 3e 93 b0 6b be
       0.13089992 -0.17472726 0.19263577 -0.23016576
0001a0 c7 11 d3 bc 0e 60 2e 3e fe 70 cc be d2 60 14 3e
       -0.025765313 0.1702883 -0.39929956 0.14490059
0001b0 75 19 ff bc 8d cf 36 3e 2e 23 2f be f0 49 81 3e
       -0.031140069 0.17852612 -0.17103264 0.25251722
0001c0 2c 37 0c bd 0a 01 af be 86 82 f7 bc 06 ab 3a bd
       -0.034232304 -0.3418048 -0.030213606 -0.045573257
0001d0 75 0b 3d bd 6a f5 81 3e b8 9e 2f 3d 2e 3f 5f be
       -0.046153504 0.2538255 0.042875975 -0.21801445
0001e0 db b1 74 be a7 a3 26 bd 30 b7 a5 3d d6 23 42 bd
       -0.23895971 -0.040683415 0.08091581 -0.047397457
0001f0 d4 9b 21 3e 1b f2 3d 3c 1b 13 a6 bd f1 9c 9c 3e
       0.157821 0.011593367 -0.08109113 0.30588487
000200 30 2b 2e 3e b6 fa f6 3d 5a 13 2d bd 4c 9f 1f 3e
       0.17008662 0.12059538 -0.042254783 0.1558811
000210 5f b6 c5 3b cd 4e 36 bd 46 79 39 3e 3b ba ef bd
       0.006033703 -0.044508744 0.18112668 -0.117054425
000220 ef bd 76 3e b2 95 ca bc 16 7a 62 3c 7a 65 8c be
       0.24095891 -0.024729583 0.013823053 -0.2742117
000230 1b ad 43 be d0 65 34 be 43 0f 02 bd a7 4e 8b be
       -0.19109003 -0.17616963 -0.031752836 -0.27208444
000240 b7 af fb bd 85 d5 15 bc 76 aa 80 bc e2 0e c0 3e
       -0.12289374 -0.009145145 -0.015706282 0.37511355
000250 dc df b2 3c 3c be 19 be 3e a8 10 3d 7b 00 9d be
       0.02183526 -0.15013975 0.0353167 -0.3066443
000260 6f 73 50 be 9e d7 ed bc 7f fa 02 3d cf f1 3e bb
       -0.20356534 -0.029033478 0.031977173 -0.0029135828
000270 72 b9 6e bc c2 d8 8a bd 1c 38 08 be a6 79 cd bc
       -0.014570581 -0.067796245 -0.13302654 -0.02508242
000280 35 c8 2a bc 18 f5 b8 3d 3c c2 a6 3e ac e7 bb 3c
       -0.01042371 0.09031123 0.32570064 0.022937618
000290 d2 fd 41 be 6e cb b0 3d 52 d3 48 be e2 52 c4 3e
       -0.18944481 0.08632551 -0.19611862 0.38344485
0002a0 63 09 bb bd a9 60 91 bc 5d df d9 bc cb 37 a3 bc
       -0.0913265 -0.017746286 -0.026595766 -0.019924065
0002b0 bf 8b 8d 3e 68 20 47 bd c2 73 cb bd 40 86 ad 3c
       0.2764568 -0.04861489 -0.099341884 0.02118218
0002c0 e9 3f 19 3d 18 25 22 3e 28 31 6d bd c7 36 12 bd
       0.037414465 0.15834463 -0.057908207 -0.03569677
0002d0 33 73 c6 3e e6 cc 2f bd e6 b9 ec 3c a7 69 11 3e
       0.38759765 -0.042920016 0.028897237 0.1420046
0002e0 29 d9 0c be f6 9d 8f 3e e5 2d a2 3e 17 53 75 3b
       -0.13754715 0.28050202 0.3167564 0.0037433559
0002f0 c8 7b 94 bd be e9 df bd 47 fd 8b bd 6a 34 90 be
       -0.07250172 -0.10933255 -0.06835418 -0.2816499
000300 e0 46 6e 3e 4c cb 88 bd cb 62 b7 3d 08 2a 4c be
       0.23269224 -0.06679401 0.0895439 -0.19937909
000310 91 34 06 bd e0 8a 2d bd 52 08 af bd 60 73 a0 3e
       -0.032764975 -0.04236877 -0.08546509 0.31338024
000320 43 92 85 3c a7 b3 ad 3e 85 57 b9 bc 47 71 5c bd
       0.016305095 0.33926126 -0.02262474 -0.053818967
000330 e0 1b 0d bd 63 d7 68 bd fb 9f 67 be 0a 6a 62 3e
       -0.03445041 -0.056846034 -0.22619621 0.22110763

linear_layer_stack.4.weight f4 [12, 208]
000000 d2 21 47 3c 67 a1 a9 be f6 d6 51 bd 00 65 b2 3f
       0.0121540595 -0.33130953 -0.051230393 1.3937073
000010 5f 4e 4c bb 90 e3 0f 40 48 46 c6 bc 0b bb de 3d
       -0.0031174642 2.2482643 -0.024203435 0.10875519
000020 8d 31 7a bd 47 51 78 bd 42 e8 22 be a1 f3 70 bd
       -0.06108241 -0.060624387 -0.15908912 -0.058826093
000030 bb 13 cd 3d cd 13 cb 3e cc 18 0b bc b5 29 c6 bd
       0.10013529 0.39663544 -0.008489799 -0.09675924
000040 9d 54 33 3d 5b 26 81 3e fc f2 ae 3d 26 45 ad bd
       0.043781865 0.25224575 0.08542439 -0.08460455
000050 de 35 41 3e 49 7c 7e 3f fd ee 1d 3d 79 67 a8 3d
       0.18868205 0.99408394 0.038557995 0.08222861
000060 03 ef cf bd e2 97 f1 3d 20 01 d0 be 28 0e 87 3e
       -0.1015301 0.117965475 -0.40625858 0.26377988
000070 26 35 a9 3d 2c 6a 18 bf 7d 9a 5b bf 1e f5 56 3c
       0.082620904 -0.59537005 -0.85782605 0.013119964
000080 28 a6 82 3e 5b 30 8b bd 8d fd 9c 3f bc ac 5d be
       0.25517392 -0.067963324 1.2264878 -0.21647924
000090 f7 6a 3c 3f 43 48 d6 3e 66 59 41 3d ba 46 32 3d
       0.73600715 0.41852006 0.047204398 0.04352448
0000a0 1f 81 1a be 53 d2 1c bf a2 33 b5 bd 7b 97 01 be
       -0.15088318 -0.6125843 -0.08847739 -0.12655441
0000b0 08 5b 62 3d f9 f1 c2 bc 32 64 0b 3e 46 cb 1e bd
       0.055262595 -0.023797022 0.1361244 -0.038768075
0000c0 a4 ec 36 bf 2c a2 ca 3e 1f 2b fc bd 69 56 ac 3e
       -0.71454835 0.39576852 -0.12312912 0.33659676
0000d0 37 bd 53 3e a3 9c 14 3f a2 d8 b4 bc ca 35 26 3f
       0.20677648 0.5805151 -0.022075955 0.64925826
0000e0 ee 2f 30 bf 56 da 7f 3e 11 fc 5d be 34 bb 55 3d
       -0.68823135 0.24985632 -0.21678187 0.052180484
0000f0 b4 18 53 3f 35 1a 9f 3a 29 7d da 39 d5 32 c7 3c
       0.8245957 0.0012138548 0.00041673452 0.02431623
000100 38 31 e9 3e 7f f4 39 be 8c 94 9d bd 38 f3 cd bd
       0.45545363 -0.18159674 -0.07694349 -0.10056156
000110 77 46 4f 3d ba c9 36 3d 57 f3 61 3e 1e 5c d9 3b
       0.05060431 0.044625975 0.22065483 0.0066332957
000120 93 4a 30 bd 5d 0c a2 3e 4b 0d b7 bd 50 00 af 3e
       -0.04303987 0.31650057 -0.08938082 0.34179926
000130 9b 16 51 bf c9 1c f5 bc 4f cb 4d bd 9a ca 6b 3e
       -0.8167512 -0.029920952 -0.05024272 0.23026505
000140 02 b6 fa bc 10 e6 50 be b0 d6 b1 bd c7 af 22 bf
       -0.030604366 -0.20400262 -0.086835265 -0.63549465
000150 60 dd cc be 7c 84 77 be 55 b5 91 be 14 2e 08 3d
       -0.40012646 -0.24171633 -0.28458658 0.03324707
000160 9e 6b 39 bf 53 2b c2 bd 63 f4 5f 3d 66 8f e6 be
       -0.72429836 -0.0948092 0.054676425 -0.4503128
000170 95 61 1d bf 36 c6 84 3d f2 7d 02 3e 20 75 90 3d
       -0.61477023 0.06483118 0.12743357 0.0705359
000180 95 99 c1 3d 37 19 99 3d 71 0f 72 bd ba f8 77 3d
       0.094531216 0.074755125 -0.059096757 0.06053994
000190 5f d4 82 3b 7d dc ee 3e a0 ff ac bf 11 b2 a4 be
       0.0039926018 0.46652594 -1.351551 -0.32167104
0001a0 ae d3 9e 3d 15 6c bc 3d d4 11 78 3e 06 e4 84 3d
       0.077552184 0.092003025 0.24225551 0.064888045
0001b0 d7 26 42 3d 3c 77 4f be 3f e1 a1 bd 69 13 19 3e
       0.04740032 -0.20260328 -0.079042904 0.1494881
0001c0 ba df a2 be 99 c2 40 3f d9 2d 49 be cd f9 a1 3e
       -0.31811315 0.7529693 -0.19646396 0.31635895
0001d0 c5 ff 22 3e 36 8d 46 3e 1c 48 4b 3d 09 2c 90 bd
       0.15917881 0.19389805 0.049629316 -0.07039649
0001e0 a3 f9 ac 3f 97 fb 26 3d a3 ce 34 3e fa 16 36 3d
       1.3513683 0.04076728 0.1765695 0.044455506
0001f0 77 9c 17 be 6d 5a 54 3d 09 04 d7 bf 3c aa ac 3f
       -0.1480578 0.05184405 -1.6798106 1.3489451
000200 01 d1 cb bd 46 10 94 3b c9 31 c7 3a 03 77 95 3e
       -0.09951974 0.0045185415 0.0015197332 0.2919236
000210 21 6a e5 3c 29 27 3f bd 7f a2 72 be d7 e2 ae 3e
       0.028004708 -0.046668205 -0.236948 0.3415744
000220 99 8f 17 3e ab d9 40 bd 67 98 7f bd 10 e9 e8 bd
       0.14800872 -0.047082584 -0.0624012 -0.11372578
000230 59 0f 61 3c 59 47 5a 3f 7a 48 22 3e 52 30 5b be
       0.013736569 0.8526512 0.1584796 -0.21405151
000240 35 7e 50 3f b0 ec d4 bc a0 09 6c bd 61 83 69 bc
       0.81442577 -0.025991768 -0.057626367 -0.014252515
000250 16 b1 83 be 8a 64 d8 3e 6c 7f e5 bc 3c 99 f7 bc
       -0.25721043 0.42264205 -0.028014861 -0.030224435
000260 a6 39 28 be de 10 83 3c ad 0f 0f 3d 79 3f 00 bd
       -0.16428241 0.015999254 0.03492706 -0.031310532
000270 29 92 fb bc 38 17 d1 3e 1c c5 a8 bc 5c 54 46 3d
       -0.030709343 0.40838027 -0.020601802 0.048420295
000280 99 7a cc bc bc 41 1b 3f ee 63 33 bc 23 03 07 3d
       -0.024960803 0.6064718 -0.010949118 0.032961976
000290 91 12 4c 3f 71 ec e8 be ef 75 b0 be 7e df 12 3e
       0.7971583 -0.4549289 -0.34464976 0.14343068
0002a0 6d 0d ae bb f4 00 b5 be 03 73 14 3b 44 e0 d0 3c
       -0.005311659 -0.3535229 0.002265156 0.025497563
0002b0 1d b9 e6 3d 9d 98 05 bd 31 fa f5 bb 2b 9d e4 3d
       0.11265776 -0.032616246 -0.007506632 0.1116279
0002c0 3e 83 74 be dc a6 60 3e d5 80 18 3e af 51 e6 bc
       -0.2387819 0.21938652 0.14892896 -0.028115122
0002d0 99 c3 0a 3e 7b ec 42 bd d7 0c 59 be f7 c6 c6 3e
       0.13551177 -0.047588807 -0.21196304 0.38823673
0002e0 46 26 e7 3d 90 54 95 bc cb 29 01 3e a8 74 68 bb
       0.11286597 -0.0182288 0.12613599 -0.0035469923
0002f0 77 62 dc bc 48 fa 7a 3d ee a1 d5 3d a7 6e 01 3e
       -0.02690242 0.061273843 0.10431276 0.12639867
000300 c9 f9 eb 3d 65 8b d0 bb 0e a8 5e 3e a4 6e b3 bc
       0.11522252 -0.0063642734 0.21743795 -0.021903343
000310 70 30 ed 3c ed 8e b9 3e 6c 09 7f bb c4 cc 23 be
       0.02895376 0.36241856 -0.0038915528 -0.1599608
000320 0e e1 b8 be 51 29 c3 bd 10 73 4c 3d d3 db 00 3d
       -0.36109203 -0.09529365 0.04991442 0.03145964
000330 00 01 34 3e e1 56 5d bd 05 2a 14 3f 8d 45 c6 3f
       0.17578506 -0.054037932 0.57876617 1.5489975
000340 4a 67 3c bd 4f d2 bf 3f 03 eb 19 3d d8 a8 63 3e
       -0.04599694 1.4986056 0.03757764 0.22232378
000350 4f b3 36 3d 9b 60 8f bf 5a 8b f6 bd ee fa 9a 3f
       0.044604596 -1.1201357 -0.12038298 1.2107828
000360 80 20 d8 bc f9 a2 60 bd c7 46 c8 bc 5e 8c 89 3e
       -0.026382685 -0.054842923 -0.024447812 0.26864904
000370 e8 20 f2 bd 32 53 15 3e 1d 62 c4 bc 1e 85 c0 bd
       -0.118226826 0.14582518 -0.023972565 -0.0940039
000380 b4 43 c6 be 34 59 00 3f 7f c3 64 3d f9 c6 5e 3f
       -0.38723528 0.50136113 0.055850502 0.8702236
000390 ef 6d 15 bd 50 2c 63 bf 3b 07 9e bc 0e fb 4c 3d
       -0.036481794 -0.8873949 -0.019290557 0.050044112
0003a0 ef a6 f9 bd 92 90 40 be bd 26 0b 3e f3 d7 49 3e
       -0.12190043 -0.18805149 0.13588996 0.19711284
0003b0 3a b1 a8 3d f7 85 8f 3d 86 06 9e 3e bb 35 90 3d
       0.08236928 0.07007974 0.30864352 0.07041498
0003c0 14 be c5 3e 52 d2 70 3f 9f c4 35 3c 35 0a e1 3e
       0.3862158 0.94070923 0.011094241 0.439531
0003d0 8e 98 cc be 0d 39 f9 3e fc cd 12 bc dc 55 a2 be
       -0.3996014 0.4867634 -0.008960243 -0.3170613
0003e0 81 fa 38 bd f3 df e8 bf c0 c6 dd 3e 9e ad 16 be
       -0.045160774 -1.8193344 0.43315697 -0.14714667
0003f0 9d 79 81 3e 37 f0 67 3d cd c4 52 be 5c 60 ab be
       0.25288096 0.05662557 -0.20582886 -0.33471954

linear_layer_stack.4.bias f4 [12]
000000 39 4c 9f bc e8 c1 f2 3e 6f bd 48 3f fc b8 2e 3f
       -0.019445525 0.47413564 0.7841405 0.68251014
000010 48 86 08 3f 7b 0d 8b 3e b5 d4 96 3e 31 40 c8 3e
       0.53329897 0.27158722 0.29459158 0.39111474
000020 76 86 ed 3e 35 ef 12 3e ed 63 cd 3d fd 33 a9 3e
       0.46391648 0.14349063 0.10028825 0.33047476
