ml_models/sign_model_2222222222_C5.00.pt (torch, 143248 bytes, 6 tensors)

linear_layer_stack.0.weight f4 [176, 11]
0	0xbf11777c	-0.56822944
1	0x3f654f7b	0.895744
2	0x3f212f55	0.6296285
3	0x3e83eb5e	0.25765508
4	0x3e12c488	0.14332783
5	0xbeab43e4	-0.33450234
6	0xbd585757	-0.05281767
7	0x3eb8eaa7	0.36116526
8	0x3e9e41cf	0.30909583
9	0x3d170dd2	0.036878414
10	0xbe6306b2	-0.22170523
11	0xbe623346	-0.22089872
12	0x3d2fb59e	0.042897813
13	0xbf88d291	-1.068926
14	0x3f078903	0.5294344
15	0x3e60cbfb	0.21952812
16	0x3e8ec6d5	0.27886072
17	0x3f0d2c28	0.551455
18	0x3e90e658	0.28300738
19	0x3ed33040	0.4124775
20	0xbe36baea	-0.1784474
21	0xbe935070	-0.28772306
22	0xbef3fb6d	-0.4765276
23	0xbe179081	-0.14801218
24	0x3f0e2144	0.5551951
25	0x3f8a4252	1.0801489
26	0xbedaa0d3	-0.42700824
27	0x3f21c8de	0.63197124
28	0xbeae0799	-0.33990172
29	0x3dfd81c0	0.123782635
30	0xbd2b1ec5	-0.04177739
31	0xbeb5d0fa	-0.35511
32	0xbdb30870	-0.08741844
33	0x3f15fedd	0.58592016
34	0xbee33c25	-0.44381824
35	0x3f345075	0.7043527
36	0x3e988b78	0.29793906
37	0x3f688530	0.9082823
38	0x3efffb02	0.4999619
39	0x3ee3680b	0.44415316
40	0xbe9b7b56	-0.30367535
41	0x3f37c844	0.71789956
42	0xbde2b4aa	-0.11069615
43	0x3e04f49e	0.12983939
44	0xbdb19178	-0.08670324
45	0x3d339c49	0.043850217
46	0x3e1fa68b	0.15590875
47	0xbbf419d0	-0.007449366
48	0xbd14637f	-0.0362277
49	0xbe874443	-0.26419267
50	0xbda65429	-0.08121521
51	0x3cfcfba7	0.030881716
52	0xbd814480	-0.063118935
53	0xbe8f660a	-0.28007537
54	0x3dd75f97	0.10516279
55	0xbedac1d1	-0.42725995
56	0xbe0012e1	-0.12507202
57	0x3e637f5f	0.22216557
58	0x3dc5a3f5	0.09650413
59	0x3ec9086a	0.39264232
60	0xbeb5645a	-0.35428125
61	0x3f0de731	0.55430895
62	0x3e083468	0.13301241
63	0x3d8d6d3e	0.06905602
64	0xbedbab2a	-0.42904025
65	0x3d790ef2	0.06080527
66	0xbe03cd20	-0.12871218
67	0xbe4f6113	-0.20251875
68	0xbdb0f9b6	-0.086413786
69	0xbea0da6c	-0.31416643
70	0x3fa01230	1.250555
71	0x3f002003	0.50048846
72	0x3eaed646	0.34147853
73	0x3e06cef5	0.13164885
74	0x3cf3c786	0.029758226
75	0x3d5c5c3a	0.05379889
76	0xbc556658	-0.013024889
77	0xbee44498	-0.44583583
78	0x3f132bd2	0.5748874
79	0x3e11275d	0.14175172
80	0xbdfe7036	-0.12423746
81	0xbe0b79dd	-0.13620706
82	0xbdb691e4	-0.08914545
83	0xbea68bc8	-0.3252852
84	0x3ec6ee07	0.38853475
85	0x3ed301df	0.41212365
86	0x3e43edf7	0.19133745
87	0xbe0a092b	-0.1348006
88	0x3eea2e79	0.4573858
89	0x3f008e04	0.502167
90	0xbcfeea0f	-0.031117467
91	0xbf8af7ad	-1.0856835
92	0x3e9e022f	0.3086104
93	0xbe638348	-0.22218049
94	0xbe6b770d	-0.22994633
95	0xbee6a75c	-0.4504956
96	0xbe1fd3e0	-0.15608168
97	0xbe64dcc0	-0.22349834
98	0x3debb601	0.11509324
99	0x3e51cd21	0.20488407
100	0xbe2143fe	-0.15748593
101	0xbeacfa49	-0.33784702
102	0x3e5f8807	0.21829234
103	0xbe17a2c0	-0.14808178
104	0x3d142375	0.036166627
105	0x3d0ce417	0.03439721
106	0x3e94b6fa	0.2904585
107	0xbe3b9f68	-0.18322527
108	0xbee42e3d	-0.44566527
109	0xbd5d5e5e	-0.054045074
110	0x3dbd4593	0.09241786
111	0x3dd93717	0.10606211
112	0xbccb93bd	-0.02485072
113	0xbe9823ce	-0.29714817
114	0xbe11b10f	-0.14227699
115	0xbe5f7dfc	-0.21825403
116	0xbe723b5d	-0.23655458
117	0x3c78b6e5	0.015180324
118	0xbe2dea37	-0.16983877
119	0x3db793a8	0.0896371
120	0x3d5e1676	0.05422064
121	0x3d832882	0.064042106
122	0xbe816fc1	-0.25280574
123	0x3f16c490	0.5889368
124	0xbd96284f	-0.07331907
125	0x3f099dd4	0.5375645
126	0x3f017c38	0.5058017
127	0xbd179893	-0.03701074
128	0x3e92c996	0.28669423
129	0x3db071fe	0.08615492
130	0xbdd0e64a	-0.10200174
131	0xbd7724fd	-0.06033801
132	0xbf336a8f	-0.7008447
133	0xbf3022c1	-0.6880303
134	0xbe6eba87	-0.23313342
135	0x3e89f24f	0.2694268
136	0xbd11e66b	-0.035620134
137	0x3f3594cf	0.7093019
138	0xbf9d8522	-1.2306254
139	0x3e878dba	0.26475316
140	0x3ef2dd4e	0.47434467
141	0x3d1a5748	0.037680894
142	0x3d070d0e	0.032971434
143	0x3ea9e2de	0.33180898
144	0x3ea11a6a	0.31465465
145	0x3eb9bac8	0.36275315
146	0x3f6839fa	0.90713465
147	0x3f04524f	0.5168809
148	0x3ebae823	0.3650523
149	0xbef9e6ae	-0.48808807
150	0x3f1800be	0.5937613
151	0x3ea92f08	0.33043694
152	0xbd0dfe72	-0.034666486
153	0x3e2b0763	0.16702037
154	0x3f2b5390	0.6692438
155	0x3e5045a3	0.20339064
156	0xbeca3180	-0.3949089
157	0x3eb775f4	0.3583218
158	0xbe06065a	-0.1308836
159	0x3de746dd	0.11292813
160	0xbeb4ff0a	-0.3535083
161	0x3e421923	0.18954901
162	0xbeea8e8d	-0.45811883
163	0x3db886a1	0.090100534
164	0xbe484e49	-0.19561113
165	0xbf487664	-0.7830565
166	0x3f0ff81a	0.5623795
167	0x3f5a75f1	0.85336214
168	0x3ef4b0bb	0.47791085
169	0xbe41bc25	-0.18919428
170	0x3f39279b	0.7232606
171	0xbe79dcae	-0.24400589
172	0x3eed984f	0.46405265
173	0xbecee9e7	-0.40412828
174	0x3e5eb55d	0.21748872
175	0x3d17cf15	0.037062723
176	0xbeade97c	-0.33967197
177	0xbd433559	-0.0476583
178	0x3ec06cb3	0.3758293
179	0x3e737b41	0.23777486
180	0xbeacb600	-0.33732605
181	0xbe9421a4	-0.28931916
182	0x3ee40774	0.44536936
183	0x3e12927f	0.14313696
184	0x3e225e1b	0.15856211
185	0x3f0a9a33	0.5414154
186	0x3eb00586	0.34379214
187	0x3e4a59cb	0.19760816
188	0xbedf6a59	-0.43635824
189	0x3e479038	0.19488609
190	0xbd23eaeb	-0.040018957
191	0x3f25f842	0.64831936
192	0x3f5303b8	0.8242755
193	0x3ed0e9e2	0.40803438
194	0x3eaa2b65	0.33236232
195	0x3e39a986	0.18131074
196	0x3dab8dd6	0.083766624
197	0x3d66f457	0.056385364
198	0xbebc65f8	-0.36796546
199	0xbd2774d7	-0.04088291
200	0xbe1a1692	-0.15047672
201	0xbea35f8f	-0.31908843
202	0xbe46b56f	-0.19405149
203	0xbe692e9b	-0.22771685
204	0x3f8c0d8a	1.0941632
205	0x3e9202da	0.285178
206	0x3e900dd7	0.2813556
207	0xbe992eca	-0.2991851
208	0x3e337bfd	0.17527767
209	0xbef96029	-0.48706177
210	0x3ec3b2b4	0.38222277
211	0x3f33bda5	0.7021125
212	0xbecb2bc0	-0.39681816
213	0xbe9debbe	-0.3084392
214	0xbd835ed0	-0.064145684
215	0x3e05d1e8	0.13068354
216	0xbf0b2374	-0.5435097
217	0x3e689051	0.22711302
218	0x3e9f6451	0.31131223
219	0xbe6b297f	-0.22965048
220	0xbe646f6b	-0.22308128
221	0xbf805526	-1.0025985
222	0xbeedc920	-0.4644251
223	0xbe2091ae	-0.15680572
224	0xbee74d5b	-0.45176205
225	0x3e119cbc	0.14219946
226	0xbe9d5327	-0.30727503
227	0xbe56711f	-0.2094159
228	0xbdeeca6d	-0.116597034
229	0x3d0f4140	0.034974337
230	0xbd176cef	-0.03696912
231	0x3e85e9f7	0.26155064
232	0xbe252f2e	-0.16131279
233	0x3db043fc	0.08606717
234	0xbe1fcde6	-0.15605888
235	0x3ea4b2f7	0.3216779
236	0xbc1886b9	-0.009309464
237	0xbe9b159a	-0.30289918
238	0x3ec167a2	0.37774378
239	0x3b555bbb	0.0032555896
240	0x3e3c042c	0.18360966
241	0xbd2c6243	-0.042085897
242	0xbe34d489	-0.176592
243	0xbeec2cb0	-0.46127844
244	0xbeeaae67	-0.45836183
245	0x3f6a3c3b	0.91498154
246	0x3f4339c4	0.7626002
247	0xbf6a4644	-0.91513467
248	0x3ef8ba64	0.48579705
249	0x3e72efe8	0.2372433
250	0xbdd479a7	-0.10374766
251	0xbe13f5b6	-0.144492
252	0xbc31fd32	-0.010863589
253	0x3e3be499	0.18348922
254	0xbdc4a662	-0.096020475
255	0xbead7766	-0.33880156

linear_layer_stack.0.bias f4 [176]
0	0xbe9c18ca	-0.30487663
1	0x3f0054e3	0.50129527
2	0x3f2c4a6e	0.6730107
3	0xbf21cb09	-0.6320043
4	0xbe3a0277	-0.18165003
5	0xbb2f9929	-0.0026794171
6	0xbeafcc56	-0.34335583
7	0x3e1b9a5c	0.15195602
8	0x3ea401c3	0.32032594
9	0x3c3dfb94	0.011595625
10	0xbe205dc8	-0.15660775
11	0xbdc5dfc2	-0.09661819
12	0x3f04c883	0.51868457
13	0xbf0d6d95	-0.55245334
14	0xbcff4091	-0.031158717
15	0xbd809276	-0.06277935
16	0xbe562813	-0.20913725
17	0xbdf62e80	-0.12020588
18	0x3efd017e	0.494152
19	0x3f10de1b	0.56588906
20	0x3fb1fb4b	1.3904814
21	0x3e2e826f	0.17041944
22	0x3d96b870	0.073593974
23	0x3d96f1df	0.07370352
24	0x3f199e9f	0.6000766
25	0xbee8092c	-0.45319498
26	0xbe4ff775	-0.20309241
27	0xbe325331	-0.17414548
28	0xbe1c9af9	-0.15293492
29	0xbde56d62	-0.11202504
30	0x3d485c2c	0.048916027
31	0x3e754e7a	0.23955718
32	0xbdd042cd	-0.10168991
33	0xbe6a753c	-0.22896284
34	0x3ebec601	0.3726044
35	0x3e8cb80a	0.2748416
36	0x3f13bbd5	0.57708484
37	0xbf09c21d	-0.5381182
38	0x3f68566c	0.9075687
39	0x3ef95aa2	0.4870196
40	0xbec45b24	-0.38350785
41	0xbdfe5068	-0.1241768
42	0x3d795d75	0.060880143
43	0x3ebd3f93	0.36962566
44	0x3f21c4bb	0.6319081
45	0xbee8deb1	-0.454824
46	0x3eabe08f	0.33569762
47	0x3f41c9bc	0.7569845
48	0xbe821ba7	-0.25411722
49	0x3f265ca8	0.6498513
50	0x3e82b829	0.25531128
51	0xbe3ba2f1	-0.18323876
52	0xbeed5723	-0.46355543
53	0x3d1491a3	0.036271702
54	0x3f88e975	1.0696245
55	0x3e86fe4c	0.26365888
56	0x3e4137be	0.1886892
57	0x3e416834	0.18887407
58	0x3da9f871	0.082993396
59	0x3f11db4f	0.56975263
60	0x3e15d6b0	0.14632678
61	0xbe73aeb2	-0.2379711
62	0x3e840bec	0.25790346
63	0x3e8f246b	0.27957472
64	0x3f490472	0.7852241
65	0x3f1e8bdf	0.61932176
66	0x3ed6398b	0.41840777
67	0xbda4a682	-0.08039571
68	0xbdd2e30f	-0.10297214
69	0x3e90a8e2	0.28253847
70	0x3e699512	0.22810772
71	0xbc2d457f	-0.010575651
72	0xbea76a02	-0.32698065
73	0xbd565521	-0.05232728
74	0x3ecf8889	0.40533856
75	0xbf67abf1	-0.90496737
76	0x3e7e9e74	0.24865133
77	0x3f18b29b	0.5964753
78	0x3f5304b9	0.8242908
79	0x3dbc6a81	0.092000015
80	0xbe4786d7	-0.19485031
81	0x3da7364a	0.08164652
82	0x3d6f4383	0.058413994
83	0x3e33689e	0.17520377
84	0xbe19640d	-0.14979573
85	0x3e1cdecf	0.1531937
86	0xbe705e46	-0.23473462
87	0xbe78491e	-0.24246642
88	0xbe1d61fe	-0.15369412
89	0x3ebc6cb4	0.36801684
90	0xbe89326f	-0.2679629
91	0x3e88a30f	0.26686904
92	0xbcc58212	-0.024109874
93	0xbe328229	-0.17432465
94	0x3f15eeff	0.58567804
95	0xbeb883d8	-0.3603809
96	0xbd9e48ea	-0.07728751
97	0x3f599643	0.84994906
98	0x3f19c0f7	0.60060066
99	0xbe46569a	-0.19368973
100	0x3f1f3ee8	0.6220536
101	0xbe83a402	-0.25711066
102	0xbe23a253	-0.1597989
103	0x3f233a4e	0.6376084
104	0xbe795e6d	-0.24352427
105	0xbe036ebb	-0.12835209
106	0xbe877d2a	-0.2646268
107	0x3f5dc351	0.86626154
108	0xbe38a9f5	-0.18033583
109	0x3e873733	0.264093
110	0xbe7923d0	-0.24330068
111	0xbf182a6a	-0.5943972
112	0xbefd2fb5	-0.4945046
113	0x3e5139ae	0.2043216
114	0x3f1f871f	0.62315553
115	0xbe15e825	-0.14639337
116	0x39e7b262	0.0004419266
117	0x3f934de2	1.1508143
118	0x3e389be2	0.18028215
119	0xbe982a89	-0.29719952
120	0x3e9f6943	0.31134996
121	0x3f5f39f9	0.87197834
122	0x3ef02ee5	0.46910778
123	0x3db6e6a1	0.08930708
124	0xbd34759b	-0.04405747
125	0xbfa08dde	-1.2543294
126	0xbe1b717d	-0.15180011
127	0x3f0cca77	0.54996437
128	0x3f65e04f	0.8979539
129	0x3d9f9fce	0.07794152
130	0xbf0a716a	-0.54079306
131	0x3f33c671	0.7022467
132	0x3f48537c	0.7825239
133	0xbf7d85da	-0.99032366
134	0x3e400507	0.18751918
135	0xbe0c9541	-0.13728811
136	0x3e892c85	0.26791778
137	0x3f470233	0.7773773
138	0x3f525a1d	0.8216875
139	0x3e46a9bf	0.1940069
140	0xbd972dec	-0.07381806
141	0x3f1a683f	0.60315317
142	0x3eaf3d8c	0.34226644
143	0x3eff56a7	0.49870798
144	0x3e1bf657	0.1523069
145	0xbea97ac1	-0.33101466
146	0x3eeca165	0.46216884
147	0x3e2f51ff	0.17121123
148	0x3ee219cf	0.44160315
149	0x3f13d36e	0.5774449
150	0xbe564d7c	-0.20927995
151	0x3e7b2ce4	0.24528843
152	0x3f5462ab	0.82963055
153	0x3d4feff0	0.05076593
154	0x3ecc5bfc	0.39913929
155	0xbeabae82	-0.33531576
156	0xbe985b54	-0.29757178
157	0xbe88c8d0	-0.26715708
158	0x3e94302e	0.28943008
159	0xbdb97a68	-0.0905655
160	0xbe80023b	-0.25001702
161	0x3e0b6d5b	0.13615935
162	0xbd72d758	-0.0592874
163	0x3f8529ae	1.0403345
164	0x3df020a8	0.11724979
165	0x3ef7c447	0.48391935
166	0xbdcbcaac	-0.09950766
167	0xbe048fcc	-0.12945479
168	0xbe4ff693	-0.20308904
169	0x3f1d5d44	0.6147044
170	0xbe48fd9f	-0.19627999
171	0xbe3f01b4	-0.18652993
172	0xbeff5e83	-0.49876794
173	0xbe8692d0	-0.26283884
174	0x3dad5ea0	0.08465314
175	0x3eb02a6c	0.34407365

linear_layer_stack.2.weight f4 [176, 176]
0	0x3da9f12b	0.08297952
1	0xbe07ace8	-0.13249552
2	0x3e8a507b	0.27014527
3	0xbceef5e6	-0.029169988
4	0x3c9d7434	0.019220449
5	0x3d1cf482	0.03831912
6	0xbd99a3e2	-0.07501961
7	0xbbcc4f47	-0.0062350365
8	0xbdaf0ed8	-0.08547753
9	0xbd84cffb	-0.064849816
10	0x3d2cb13e	0.04216122
11	0x3dbc9f06	0.09210019
12	0x3c9695b9	0.01838194
13	0x3db93ab8	0.09044403
14	0x3da57ed5	0.08080832
15	0x3e3d900e	0.18511984
16	0x3dd8210d	0.10553179
17	0xbde3aae2	-0.11116578
18	0xbe349854	-0.17636234
19	0x3b88eff2	0.0041789943
20	0xbc75dc3a	-0.015006119
21	0xbaffdf94	-0.0019521588
22	0xbcf5c3a2	-0.030000512
23	0x3d35903c	0.044327006
24	0xbc927531	-0.017878147
25	0x3dc16b3b	0.09444281
26	0x3ddd978f	0.10819923
27	0xbe047438	-0.12934959
28	0x3d1c5d7a	0.038175084
29	0x3cf8d7f5	0.030376414
30	0xbd3eb950	-0.046563447
31	0x3d8a38fc	0.0674915
32	0x3e16a072	0.14709643
33	0x3c4065ac	0.01174299
34	0xbd641c45	-0.055691022
35	0xbda34382	-0.079718605
36	0x3df99ef0	0.12188518
37	0x3dae10e0	0.084993124
38	0x3d11386b	0.035454195
39	0x3e1189f7	0.14212786
40	0xbe16b854	-0.14718753
41	0xbd58efc0	-0.05296302
42	0x3dacd241	0.0843854
43	0x3dc49ab6	0.09599821
44	0x3d3f07ef	0.046638425
45	0xbdc1bbcf	-0.0945965
46	0x3dc94591	0.09827722
47	0x3d5d7b83	0.054072868
48	0x3d538643	0.051641714
49	0xbdcb546a	-0.0992821
50	0x3dfc80e6	0.12329273
51	0xbc469cca	-0.012122342
52	0x3d006534	0.031346515
53	0xbc99afb0	-0.018760532
54	0x3e0a276a	0.13491598
55	0xbd90a002	-0.07061769
56	0x3db97579	0.09055609
57	0xbbbc2438	-0.0057416223
58	0x3d535f3b	0.05160449
59	0x3d3d14d9	0.04616246
60	0xbdfc029b	-0.123051845
61	0x3bc605fe	0.006043195
62	0xbd99fe96	-0.075192615
63	0x3e2b5207	0.1673051
64	0x3dae6260	0.08514857
65	0xbd2dfff6	-0.04248043
66	0xbe0dac34	-0.13835222
67	0x3c2bcfe0	0.010486573
68	0xbcac7d85	-0.021055946
69	0x3d95eae5	0.07320193
70	0xbe2d4f54	-0.16924793
71	0x3daf43c4	0.08557847
72	0xbe022571	-0.12709595
73	0x3e136879	0.14395322
74	0x3c478d81	0.012179733
75	0x3b310ed5	0.0027016897
76	0xbd13bc53	-0.03606827
77	0x3c646261	0.013939471
78	0xbd7cd490	-0.061726153
79	0x3da38693	0.07984652
80	0x3d09ae59	0.033613537
81	0x3e47a8ed	0.19498034
82	0x3d8eb2af	0.06967675
83	0xbdb264d9	-0.087106414
84	0xbd0379bc	-0.032098517
85	0xbd262c37	-0.04056951
86	0xbd5209ec	-0.051278993
87	0x3d23ab56	0.03995832
88	0x3c1ad9e4	0.009451363
89	0x3d9a91ea	0.07547362
90	0x3d00dcc0	0.031460524
91	0xbccceac9	-0.025014298
92	0x3c25ac43	0.010111871
93	0xbcdfe25e	-0.02732962
94	0x3e215150	0.15753675
95	0x3d594d7f	0.05305242
96	0x3d8c37a0	0.06846547
97	0x3cd52905	0.026020536
98	0x3e44041d	0.19142194
99	0x3db9c5c1	0.09070922
100	0xbc06c15b	-0.0082248105
101	0xbcdc037b	-0.026857128
102	0x3d7862ff	0.060641285
103	0x3d834281	0.06409169
104	0xbd6afac3	-0.05736805
105	0xbd283bd8	-0.041072696
106	0xbbf86056	-0.0075798435
107	0xbd1a5962	-0.0376829
108	0x3d46b63e	0.048513643
109	0xbd4673c7	-0.048450258
110	0x3d328216	0.04358109
111	0xbe81d824	-0.25360215
112	0x3dd37660	0.103253126
113	0x3df1633f	0.11786508
114	0xbda22b71	-0.07918442
115	0x3cfe922c	0.03107556
116	0xbc138a78	-0.0090051815
117	0x3dfff3d4	0.124976784
118	0x3d19a9cb	0.037515443
119	0x3c26d08a	0.0101815555
120	0xbcef89f5	-0.029240588
121	0xbcf2ce23	-0.02963931
122	0xbe525005	-0.20538338
123	0x3d191134	0.03736992
124	0x3b6156b0	0.0034383945
125	0x3db5beb0	0.088742614
126	0x3d311c86	0.043240093
127	0x3d95bab5	0.07311002
128	0x3e1ec4cd	0.15504761
129	0x3b3a88f7	0.0028462985
130	0xbd0bda89	-0.03414396
131	0xbd63022a	-0.055421986
132	0x3de89439	0.11356396
133	0xbdbb736a	-0.09152873
134	0xbc193e46	-0.009353226
135	0xbcf5e373	-0.030015683
136	0xbc9d5533	-0.019205665
137	0xbcfedc39	-0.03111087
138	0xbe2f2f8e	-0.17107984
139	0xbd2426a6	-0.04007592
140	0xbcc6a5e1	-0.02424902
141	0xbcaa24de	-0.020769533
142	0xbdcff7f7	-0.101547174
143	0xbe26f36a	-0.16303793
144	0xbe239566	-0.1597496
145	0xbe08f89d	-0.13376088
146	0x3d8828f6	0.06648438
147	0x3c9a883f	0.018863795
148	0xbd1c3715	-0.038138468
149	0xbe5ed2dc	-0.21760124
150	0xbdbb97cd	-0.09159813
151	0xbc46ad56	-0.012126287
152	0x3d325b4b	0.043544095
153	0xbbd92fa3	-0.006627993
154	0x3e239ebd	0.15978523
155	0x3df3ab9b	0.118979655
156	0x3c57b431	0.01316552
157	0x3d8f6d69	0.0700329
158	0x3dce585d	0.10075448
159	0x3d1a0173	0.03759904
160	0xbcbbda93	-0.022931373
161	0x3c39e518	0.011346124
162	0x3b5b46fd	0.003345906
163	0x3c2492e3	0.010044786
164	0xbe774935	-0.2414902
165	0x3ce51b81	0.027967216
166	0x3d3415a4	0.04396595
167	0x3d2d25ac	0.042272255
168	0x3d9d48ca	0.07679899
169	0x3d13bf18	0.036070913
170	0xbcba971b	-0.02277713
171	0xbb13a4b9	-0.0022528602
172	0xbe561db2	-0.20909765
173	0x3d4e04a2	0.050297387
174	0xbb34f775	-0.0027613316
175	0x3db9ba85	0.09068779
176	0x3df64df6	0.120265886
177	0x3c4b452a	0.012406627
178	0xbe34077c	-0.1758098
179	0xbc07ba12	-0.008284109
180	0xbcf4e9b9	-0.029896604
181	0xbd4d4524	-0.050114766
182	0x3e813497	0.25235435
183	0x3d87491e	0.06605743
184	0xbd3ac784	-0.04560043
185	0xbd1720d2	-0.036896534
186	0x3d9232a5	0.07138566
187	0x3d6aa762	0.057288535
188	0x3dd60052	0.1044928
189	0xbcc62d09	-0.024191396
190	0x3d6af13c	0.057358965
191	0x3e08d3e8	0.13362086
192	0xbd58c513	-0.05292232
193	0x3e1d5ee4	0.15368229
194	0xbd7408e0	-0.059578776
195	0x3dd8cc31	0.105858214
196	0xbcfa3e4e	-0.030547287
197	0x3d927973	0.07152071
198	0x3da426cc	0.080152124
199	0xbd08f924	-0.033440724
200	0xbb2cd77d	-0.0026373558
201	0xbb93e139	-0.0045129326
202	0x3d4b1fbc	0.04959081
203	0x3db7a47f	0.08966922
204	0xbde8e5c3	-0.113719486
205	0x3d202805	0.039100666
206	0xbd1dda68	-0.038538367
207	0x3d70f80f	0.058830317
208	0xbdfb575b	-0.12272521
209	0xbd2b61f9	-0.04184148
210	0xbbaed1c0	-0.0053350627
211	0xbdae52ec	-0.0851191
212	0xbde0af0a	-0.10970886
213	0xbd5815e5	-0.052755255
214	0xbd1611ee	-0.036638193
215	0x3cc52947	0.024067534
216	0x3e7335a4	0.23750931
217	0x3be26ec3	0.0069101765
218	0xbd353722	-0.044242032
219	0xbdb26bde	-0.0871198
220	0x3cb2e9b4	0.021839954
221	0x3d18dbca	0.037318982
222	0xbe63724b	-0.22211568
223	0xbe0dc15d	-0.13843293
224	0xbd008945	-0.03138091
225	0x3b0104b4	0.0019686641
226	0xbea8370c	-0.32854497
227	0x3d8497f3	0.064742945
228	0x3d132ff7	0.035934415
229	0x3e9193f1	0.28433183
230	0xbdc3ccf8	-0.09560579
231	0xbde9885b	-0.11402961
232	0xbe119ff4	-0.14221174
233	0xbe02a411	-0.12757899
234	0xbd5fe622	-0.05466283
235	0xbc48a161	-0.012245507
236	0xbe0ba43a	-0.13636866
237	0x3de93ffc	0.11389157
238	0x3c951932	0.01820049
239	0xbd85704e	-0.06515561
240	0xbe399330	-0.18122554
241	0xbe106a77	-0.14103113
242	0x3e025880	0.12729073
243	0x3d2b2afc	0.04178904
244	0xbe82b5fb	-0.25529465
245	0xbd845795	-0.064620174
246	0x3db90053	0.09033265
247	0x3d99c78f	0.07508766
248	0xbc5e4fbe	-0.013568817
249	0xbb9f5d69	-0.0048634303
250	0xbdd63f6d	-0.10461316
251	0xbd5c12f2	-0.053729005
252	0xbca6925a	-0.020333458
253	0xbe77b95d	-0.24191804
254	0xbe0a3eb4	-0.13500482
255	0x3ca3c15d	0.019989664

linear_layer_stack.2.bias f4 [176]
0	0x3d67423d	0.056459654
1	0xbc68609b	-0.014183189
2	0xbe1ea822	-0.15493825
3	0xbce14806	-0.027500164
4	0xbe6cb290	-0.23114991
5	0x3e21e4ff	0.15810011
6	0x3d193c2a	0.037410893
7	0xbe20c953	-0.15701799
8	0xbd58f0a1	-0.052963857
9	0x3d8bf1e1	0.06833244
10	0x3e75e4ea	0.24013105
11	0x3c3149c3	0.010820809
12	0xbccdcbaa	-0.025121529
13	0x3e42b128	0.19012892
14	0xbd0a5a4b	-0.033777516
15	0x3cdea4a5	0.027178118
16	0xbd548983	-0.051888954
17	0xbd3bf37f	-0.045886513
18	0xbdb4627b	-0.08807846
19	0x3e76bdf4	0.24095899
20	0x3e2d7870	0.16940475
21	0xbd254c52	-0.040355988
22	0xbd88c804	-0.06678775
23	0xbcb47e01	-0.02203274
24	0xbd036d26	-0.032086514
25	0xbe299c14	-0.16563445
26	0x3d65f150	0.056138337
27	0xbd1522d7	-0.03641018
28	0x3c3c2625	0.011483704
29	0x3e49e50d	0.19716282
30	0xbcde482b	-0.027134022
31	0x3dd56071	0.10418785
32	0x3d98157f	0.07425975
33	0xbd68a5fa	-0.056798913
34	0xbe1a4a68	-0.15067446
35	0xbe17f723	-0.14840369
36	0xbe29316d	-0.1652276
37	0x3d539e4c	0.051664636
38	0xbd1a5716	-0.037680708
39	0xbd97ab1d	-0.07405684
40	0x3e2bc195	0.16773064
41	0xbf14bcb5	-0.58100444
42	0xbe6134d5	-0.2199281
43	0xbd8441a4	-0.064578325
44	0x3e39481b	0.18093912
45	0x3d61b2c6	0.055102132
46	0x3f07b5fc	0.5301206
47	0xbc1bf873	-0.009519684
48	0xbd8d7da7	-0.06908732
49	0x3eb9e5ef	0.36308238
50	0x3e868bb3	0.26278457
51	0x3edf5502	0.43619543
52	0x3cfa65df	0.030566154
53	0x3e012230	0.12610698
54	0xbd7e4d21	-0.062085275
55	0xbe918319	-0.28420332
56	0xbd135c5b	-0.03597675
57	0xbd49321e	-0.04912006
58	0x3e6a5ec5	0.22887714
59	0xbaa6a532	-0.0012714027
60	0xbdf9ac6b	-0.12191089
61	0x3d382996	0.044961534
62	0x3dcbf474	0.09958735
63	0x3d72fc18	0.059322447
64	0xbe733c1b	-0.23753397
65	0xbdd72bc9	-0.10506398
66	0x3d377114	0.044785574
67	0x3e5ca1ca	0.21546093
68	0xbe09caff	-0.13456343
69	0x3c25a6bd	0.010110554
70	0x3ef61cdc	0.48068893
71	0x3e059997	0.13046871
72	0xbba142ac	-0.004921278
73	0xbd2e12c8	-0.04249838
74	0x3c065fc1	0.00820154
75	0x3c92a549	0.01790108
76	0xbcd4b640	-0.02596581
77	0x3ecd0adf	0.40047356
78	0x3e38c55f	0.18044041
79	0xbd9e660f	-0.0773431
80	0xbd8c20e8	-0.06842214
81	0xbe183780	-0.14864922
82	0xbde5df8b	-0.11224278
83	0xbd7e1749	-0.062033925
84	0xbd6207d2	-0.05518324
85	0xbd311fce	-0.043243222
86	0x3e81b287	0.25331518
87	0xbe69264f	-0.2276852
88	0xbe495b26	-0.19663677
89	0x3e1a6291	0.15076663
90	0x3d2ece28	0.042677075
91	0xbdb79f6f	-0.089659564
92	0x3d653b21	0.055964593
93	0x3bd1766f	0.006392292
94	0xbd8adf63	-0.06780889
95	0x3d724b3d	0.059153784
96	0x3e084adb	0.13309805
97	0xbe21f8d1	-0.15817572
98	0xbdaa78fb	-0.083238564
99	0x3ee41c47	0.44552824
100	0xbeca381f	-0.39495942
101	0x3b19923e	0.0023433114
102	0x3ba6d8c5	0.005091759
103	0x3ea05eeb	0.31322417
104	0xbd32fd6f	-0.043698724
105	0xbda267b1	-0.07929934
106	0xbdb48a5b	-0.08815452
107	0xbe05aae0	-0.13053465
108	0xbd1fc3ce	-0.039005093
109	0x3dcef2ef	0.1010493
110	0x3e002815	0.1251529
111	0xbdf1ac0d	-0.11800394
112	0x3ed01600	0.40641785
113	0xbed5b736	-0.4174134
114	0x3e3dcf39	0.1853608
115	0xbc0b600a	-0.008506784
116	0xbc8dedf7	-0.017325385
117	0x3c596bd2	0.013270335
118	0xbbdaa368	-0.0066723116
119	0xbd716337	-0.05893251
120	0xbc3b8e37	-0.011447481
121	0xbe8b6482	-0.2722512
122	0x3ef8fe78	0.48631644
123	0xbd164cbe	-0.03669428
124	0x3db54a3a	0.08852048
125	0xbe2afd0d	-0.16698094
126	0x3e0c59ca	0.13706127
127	0xbda38473	-0.07984247
128	0x3e87fdb3	0.26560745
129	0x3e82b35a	0.2552746
130	0xbc9d66d0	-0.019214064
131	0xbd2ad701	-0.04170895
132	0x3d08cd23	0.03339876
133	0xbc76ce3a	-0.015063817
134	0xbe38418f	-0.17993759
135	0xbc869226	-0.01642711
136	0xbe162c9f	-0.14665459
137	0xbe542886	-0.20718583
138	0x3d990316	0.07471292
139	0xbd90eca9	-0.07076389
140	0x3e2197ab	0.15780513
141	0x3ddc40d0	0.107545495
142	0xbc9cfde6	-0.019164037
143	0xbe047002	-0.12933353
144	0xbcb9456d	-0.022616113
145	0x3e0d144c	0.13777274
146	0x3de1486b	0.11000141
147	0x3e7b9f05	0.2457238
148	0x3d711d1d	0.058865655
149	0x3c8063cc	0.015672587
150	0x3e3f195f	0.18662022
151	0x3e63303d	0.2218637
152	0xbdea48d9	-0.11439676
153	0xbe1cd667	-0.15316163
154	0x3e37efce	0.17962572
155	0x3d58bbc4	0.052913442
156	0xbdde0b3a	-0.10841985
157	0x3cb6fe8c	0.022338174
158	0x3da77647	0.081768565
159	0xbc808120	-0.015686572
160	0x3e4daa42	0.2008448
161	0x3dafea8f	0.085896604
162	0xbdfa67f5	-0.122268595
163	0xbd90e0fb	-0.070741616
164	0x3d785338	0.06062624
165	0xbdc202a8	-0.09473163
166	0xbe0c74b8	-0.137164
167	0xbdd3336e	-0.10312544
168	0xbe2cdc88	-0.16881001
169	0xbd0d1ea5	-0.034453053
170	0xbe00073c	-0.1250276
171	0x3e9db8e5	0.30805126
172	0x3e42a56f	0.1900842
173	0x3c87a2ac	0.01655706
174	0xbe585439	-0.21125878
175	0x3d41ba6d	0.04729693

linear_layer_stack.4.weight f4 [10, 176]
0	0x3da343ad	0.079718925
1	0x3e81b97b	0.25336823
2	0x3ef7e28a	0.48415023
3	0xbd5caaae	-0.05387371
4	0xbf2a0be0	-0.6642437
5	0xbe3fdde4	-0.18736988
6	0xbd2c1b36	-0.042018138
7	0x3d12fa82	0.035883434
8	0x3e171f10	0.14757943
9	0xbe13c78c	-0.1443159
10	0x3e08028d	0.13282223
11	0x3ee08c4e	0.43857044
12	0x3e22e713	0.1590846
13	0xbe7cb460	-0.24678183
14	0xbeac5835	-0.33661047
15	0x3d3b18b7	0.045677867
16	0x3d59a79d	0.053138364
17	0x3d81a6d9	0.06330652
18	0xbd2545fc	-0.040349945
19	0x3e351e95	0.17687447
20	0xbebf9d44	-0.37424672
21	0xbeafdd79	-0.34348658
22	0x3d58c781	0.052924637
23	0xbd49b1a6	-0.049241684
24	0x3cab80df	0.020935474
25	0xbe689131	-0.22711636
26	0x3eb06cea	0.34458095
27	0xbd24ff57	-0.040282574
28	0xbdbf8e4b	-0.09353312
29	0xbe15d853	-0.14633302
30	0xbd87f8b4	-0.06639233
31	0xbd3646ee	-0.044501238
32	0xbe055cc3	-0.13023667
33	0x3f1d0ad3	0.6134464
34	0xbd2cd7e2	-0.04219807
35	0x3ed8afe0	0.42321682
36	0x3c88d36e	0.01670238
37	0x3f9fc6ff	1.2482604
38	0xbd9ee0dd	-0.07757733
39	0x3c7acac4	0.015307132
40	0xbdd0a56a	-0.101878
41	0xbe800f1a	-0.25011522
42	0x3e26fb23	0.16306739
43	0x3fb50e45	1.414498
44	0x3e869e96	0.26292866
45	0x3b96578b	0.0045880727
46	0x3f006ed3	0.50169104
47	0x3e72baa9	0.23704018
48	0x3d566166	0.05233898
49	0xbdb47b57	-0.08812588
50	0x3c45277f	0.012033342
51	0x3e1cad08	0.15300381
52	0xbf146f1b	-0.57982033
53	0x3dd18905	0.102312125
54	0xbc8eb8ad	-0.017422045
55	0x3dc553fd	0.0963516
56	0x3dc88760	0.09791446
57	0x3e1dd00b	0.15411393
58	0x3cc811c5	0.024422536
59	0x3e8b2bc7	0.27181837
60	0xbe38f85b	-0.1806349
61	0xbfe838e1	-1.8142358
62	0x3fa1ddbb	1.2645792
63	0x3ec3b4f9	0.3822401
64	0x3f219794	0.63121915
65	0x3da10863	0.07862928
66	0x3ed70fb3	0.42004165
67	0xbf90fce3	-1.1327175
68	0x3efeab5c	0.49740112
69	0x3d5766e2	0.05258835
70	0x3dd0c024	0.10192898
71	0x3ebb178c	0.36541402
72	0x3c809a40	0.015698552
73	0xbe9a8f8d	-0.30187646
74	0xbf7711b7	-0.96511406
75	0xbd7928b2	-0.060829826
76	0xbd933134	-0.07187119
77	0x3fc138db	1.5095476
78	0x3f0a1af3	0.5394737
79	0xb99d0de7	-0.00029955732
80	0xbbc5e745	-0.0060395324
81	0x3faab528	1.3336535
82	0xbe8ddaf5	-0.27706113
83	0xbec72489	-0.38895062
84	0x3d936155	0.07196299
85	0xbe7a5bcb	-0.24449079
86	0x3f2e2a3d	0.680332
87	0xbe66aeeb	-0.22527663
88	0x3e676de1	0.22600509
89	0x3f0bd41b	0.5462052
90	0x3c615daa	0.013755241
91	0x3f97a7bd	1.1848065
92	0xbd095f66	-0.033538245
93	0x3d42d017	0.04756173
94	0x3f68bd3e	0.9091376
95	0x3db30202	0.08740617
96	0xbf223822	-0.633669
97	0xbee47278	-0.44618583
98	0x3d4a0b9a	0.04932747
99	0xbf53fcfc	-0.828079
100	0x3f26a194	0.650903
101	0x3b009aca	0.0019623511
102	0xbc877fa2	-0.016540352
103	0xbf54c2b4	-0.83109593
104	0xbd191d0f	-0.037381228
105	0xbd0007c5	-0.03125741
106	0xbddb71bb	-0.10715052
107	0x3eed0ad5	0.46297327
108	0xbd955298	-0.07291144
109	0xbea4fbd5	-0.32223383
110	0x3dd86175	0.105654635
111	0x3bccb2db	0.006246907
112	0x3f8b9a18	1.0906401
113	0x3fedae26	1.8568771
114	0x3ebfbdc9	0.37449482
115	0xbd55082d	-0.05200975
116	0x3cc6f7d0	0.024288088
117	0xbd58a57d	-0.052892197
118	0xbe8c0653	-0.27348575
119	0x3eb0891e	0.34479612
120	0x3c0e7b78	0.008696429
121	0x3f982235	1.1885439
122	0x3e04ea03	0.12979893
123	0x3dee19fc	0.1162605
124	0x3ea1af88	0.31579232
125	0xbd80e56c	-0.06293759
126	0x3b8816a9	0.004153092
127	0x3e08f47f	0.13374518
128	0xbeea3962	-0.45746905
129	0xbe1fd3d3	-0.15608148
130	0x3de26df5	0.11056129
131	0x3c927c65	0.017881582
132	0xbe7779c9	-0.24167551
133	0xbc8d4083	-0.017242676
134	0xbece68ff	-0.4031448
135	0xbd7b1e42	-0.061308153
136	0x3d9c889c	0.07643244
137	0x3e4260ad	0.18982191
138	0xbe7c7065	-0.2465225
139	0x3d32bb76	0.043635808
140	0xbebd5c18	-0.36984324
141	0xbe948abb	-0.29012093
142	0xbd9b4288	-0.07581049
143	0xbe06caff	-0.13163374
144	0x3ce9c006	0.028533947
145	0x3d57cb8d	0.052684356
146	0xbf92607a	-1.1435692
147	0xbef5b280	-0.47987747
148	0xbe09d7c3	-0.13461213
149	0xbcd71c8b	-0.026258728
150	0x3fda85f5	1.707213
151	0x3fa58fdc	1.2934527
152	0x3effd80a	0.49969512
153	0xbd85dc06	-0.06536107
154	0xbdd56918	-0.10420436
155	0xbd83d4be	-0.06437062
156	0x3f3b189e	0.7308444
157	0x3f48c277	0.7842173
158	0x3eb6cbc7	0.35702345
159	0x3cde84f7	0.027163012
160	0xbda610e0	-0.081086874
161	0xbf31aa4c	-0.6940048
162	0x3e26a807	0.16275035
163	0xbd09e5c7	-0.0336664
164	0xbd2e2703	-0.042517673
165	0x3ea1085b	0.31451687
166	0x3e11baf1	0.14231469
167	0x3e4bec6a	0.19914404
168	0x3ddee820	0.10884118
169	0x3c64fa2b	0.01397566
170	0xbd9948cf	-0.0748459
171	0xbf276634	-0.65390325
172	0x3eba9ed9	0.36449316
173	0xbc59b9a1	-0.013288886
174	0x3f116079	0.5678783
175	0x3e2fa684	0.17153364
176	0xbdcd5583	-0.10026076
177	0xbdc990d5	-0.09842078
178	0x3bcaa2f4	0.0061839763
179	0x3d4875a5	0.04894032
180	0xbe05308f	-0.13006805
181	0x3f04c7af	0.51867193
182	0xbf0c8465	-0.5488952
183	0x3e1705fc	0.14748377
184	0x3ee17155	0.44031778
185	0x3e74ac4b	0.2389385
186	0x3f690ad4	0.9103215
187	0xbe53ba6d	-0.20676585
188	0x3dddebfe	0.108360276
189	0xbe87ce95	-0.26524797
190	0xbf080d93	-0.5314571
191	0xbce3d10e	-0.027809646
192	0xbd8b3318	-0.06796855
193	0xbcff4868	-0.031162456
194	0xbd0bcdd1	-0.03413183
195	0x3d4e9b5a	0.050441124
196	0x3f7c75d2	0.9861728
197	0xbfc15223	-1.5103191
198	0xbd807450	-0.06272185
199	0x3d42b0c1	0.047531847
200	0x3d0568f1	0.032570783
201	0x3e92ca8e	0.28670162
202	0xbf8c8cac	-1.098043
203	0xbcc255b8	-0.023722515
204	0x3ebdb876	0.37054795
205	0xbe2d820d	-0.16944142
206	0x3d987c94	0.074456364
207	0xbb8060bb	-0.003917781
208	0xbe220770	-0.1582315
209	0x3f3c5d18	0.7357955
210	0x3de3acb7	0.11116927
211	0x3ef53240	0.478899
212	0x3f02ce8f	0.51096433
213	0xbef306a3	-0.47466
214	0x3d683b99	0.05669746
215	0xbc8e0533	-0.017336464
216	0x3e0e09bd	0.13870902
217	0x3d468803	0.048469555
218	0xbfbc3b86	-1.4705665
219	0xbf61fe80	-0.8827896
220	0xbdd8236d	-0.10553632
221	0xbc70cbc5	-0.01469702
222	0xbed35781	-0.41277698
223	0xbdcf1eca	-0.101132944
224	0x3cafc709	0.021457212
225	0x3e8ca079	0.2746618
226	0xbc942fee	-0.01808926
227	0x3e2b4ef7	0.16729341
228	0x3fda139b	1.7037233
229	0x3da44dce	0.080226526
230	0xbd79e752	-0.06101162
231	0x3ec84ee5	0.39122692
232	0x3cf2e5e9	0.029650645
233	0xbe1723f6	-0.14759812
234	0x3f6fcc9b	0.9367158
235	0xbf39f740	-0.726429
236	0xbec1ba46	-0.37837428
237	0xbe3aa058	-0.18225229
238	0xbfb20460	-1.3907585
239	0x3e4d13ec	0.20027131
240	0xbe9fecea	-0.3123544
241	0x3db5119e	0.08841251
242	0xbe0b4435	-0.13600238
243	0xbf0c2b71	-0.54753786
244	0xbf74eb36	-0.95671403
245	0xbd90d3f7	-0.07071679
246	0xbee208a7	-0.44147226
247	0x3e04c82a	0.12966982
248	0xbc26a5ea	-0.010171393
249	0x3b8d236e	0.004307202
250	0xbe6739bf	-0.22580622
251	0x3d48271c	0.048865423
252	0xbceab970	-0.028652877
253	0x3f804bae	1.0023096
254	0x3f40c947	0.75307125
255	0xbcaa1289	-0.020760791

linear_layer_stack.4.bias f4 [10]
0	0xbe052fce	-0.13006517
1	0xbc8b1fa0	-0.016982853
2	0x3df3211a	0.11871548
3	0x3e94fe47	0.29100248
4	0x3d62bc56	0.055355392
5	0x3e1c63b0	0.15272403
6	0x3e34318e	0.17597029
7	0x3ed1e2d3	0.40993366
8	0x3edf0c38	0.4356401
9	0x3e249a9b	0.16074602
